src/ml_models/model_files/lstm_model.pth (torch, 9378 bytes, 10 tensors)

lstm.weight_ih_l0 f4 [40, 1]
000000 c1 19 7c bd e9 0a d9 bd 18 09 2c be 4c 9d 0b 3e
       -0.061548 -0.10597784 -0.16800344 0.13634223
000010 06 f5 7b 3e 72 b3 ce 3d 7a e3 9d 3e de 2c 9a 3d
       0.24605188 0.1009282 0.30837613 0.07528089
000020 72 a9 2d 3e 12 9a 93 be d2 67 20 be a2 97 64 3d
       0.1695917 -0.28828484 -0.15664604 0.05580867
000030 21 55 b8 bd 39 f9 88 3c 9e e1 2b 3e 1f a9 90 3e
       -0.09000612 0.016720401 0.16785285 0.2825403
000040 68 85 7f 3e 16 de c4 bd 1b 37 19 3e 58 71 77 3d
       0.24953234 -0.09612672 0.14962427 0.060410827
000050 1e 51 0a 3e 3e ce 9f be 6a e6 a6 bd 60 91 8f bd
       0.13507506 -0.31212038 -0.08149417 -0.0701015
000060 31 82 8f be e2 e4 5f 3e 7a 7f 7e 3e 26 40 0d 3e
       -0.28029016 0.21864656 0.24853316 0.13794002
000070 77 4c 3e be ad 01 14 3e c3 b1 2e 3e 47 97 04 be
       -0.18583857 0.14453764 0.17059998 -0.12948333
000080 8a a4 d7 3d 4e f2 94 3c d8 80 46 be df a4 d4 3d
       0.1052943 0.018181946 -0.19385087 0.10383009
000090 0a 20 18 3d d7 d0 a0 bd 08 66 a0 be 28 55 34 3e
       0.03713993 -0.07852333 -0.31327844 0.1761061

lstm.weight_hh_l0 f4 [40, 10]
000000 4d 67 ef bc c2 07 16 3e 64 1e df 3d eb e5 72 3d
       -0.029224062 0.14651397 0.108944684 0.059301298
000010 01 c0 72 be c8 79 ac bc 7f 20 6b bd 54 25 61 be
       -0.23706056 -0.021054164 -0.057404038 -0.21986896
000020 ae 24 8d be 7b 2c 15 be f7 c8 87 3e ee 07 e5 3d
       -0.27567047 -0.14567749 0.26520512 0.11183153
000030 52 f6 ad 3e c2 6c 9c bb a4 6e 69 3e 18 c2 87 3d
       0.3397699 -0.004773707 0.22796112 0.06628817
000040 b0 06 ad be 42 02 05 be ef 6b 4e 3e 34 a2 6c be
       -0.33794165 -0.12989143 0.20158361 -0.2310875
000050 06 52 b5 3b 5f 05 43 3e dc 3e 9e be ed c4 5c be
       0.0055334596 0.19045018 -0.30907333 -0.21559496
000060 6e b6 bb 3d fc 32 dd 3c 7c 72 fd bd 04 86 7a be
       0.09165655 0.02700185 -0.12375352 -0.24465185
000070 dd cb bd 3d bd 41 9d 3e cf 73 50 3e 37 43 95 be
       0.092673995 0.30714217 0.20356677 -0.29152843
000080 ae c9 1e bd 54 69 84 be 75 a2 c1 bd 5f 66 8c be
       -0.038766555 -0.2586161 -0.09454814 -0.27421853
000090 e5 0b 3c be 2b 43 68 be a6 cc 9e bd 8e 90 10 3e
       -0.18363912 -0.22681873 -0.07753877 0.14117643
0000a0 7f 19 09 3e 64 3f 78 3e fc 14 36 3e fb 32 a1 3e
       0.13388632 0.24242932 0.17781442 0.31484208
0000b0 28 8d 7e be ca f2 95 be ee 48 2b 3e de ff 8a be
       -0.24858534 -0.29286796 0.16727039 -0.27148336
0000c0 9e 2f 46 3e c6 57 b5 bd c9 b2 17 3e 75 51 7c be
       0.19354102 -0.08854632 0.14814295 -0.24640448
0000d0 57 6f b0 bd 15 85 4a 3e e8 2c 36 be ea 73 39 be
       -0.086149864 0.1977733 -0.17790568 -0.18110624
0000e0 3c 6f 5b 3e 27 f9 f3 bd fe 2c 2c 3e 4c 2f 51 be
       0.21429151 -0.119127564 0.16814038 -0.20428199
0000f0 f8 82 41 be 6e a4 82 be 22 9b 15 bd 4f 62 8f bd
       -0.18897617 -0.25516075 -0.0365249 -0.07001173
000100 50 10 ed 3d 03 2b 79 3e 2c a8 26 bd 8b c1 8a bd
       0.11575377 0.24332814 -0.040687725 -0.06775197
000110 ac 7d a8 bb 02 a5 62 be af 1a 60 3e 4e 9d ee bd
       -0.0051419344 -0.22133258 0.21885179 -0.11651097
000120 41 21 8f 3e 1e 7a 34 3e a9 69 a5 3e f2 1b ee bc
       0.27955058 0.17624709 0.32307175 -0.02906606
000130 68 d5 83 bc 71 0d 2e bd 8d 6d 46 be 39 93 57 be
       -0.016092971 -0.042493287 -0.19377728 -0.21052255
000140 c2 00 54 3d c0 22 82 bd e9 4f ca bd 40 3a 83 be
       0.051758535 -0.06354284 -0.09878523 -0.2563038
000150 77 e9 8a 3e 47 11 6f be 56 1c 3f 3e 9b f6 c2 3d
       0.27131245 -0.23346435 0.18663153 0.095196925
000160 39 f2 14 bd 5b 7b b8 bd 68 5d fe 3c 29 8b d2 bd
       -0.036363814 -0.09007903 0.031050399 -0.10280449
000170 58 2c 6a 3e 5b 95 9f 3e 91 d8 d6 bc b2 15 1d 3d
       0.22868478 0.31168637 -0.026226314 0.03835077
000180 ea 9c 94 be 71 bb 81 be 48 ef 42 3d b0 bc a8 3d
       -0.29025966 -0.2533832 0.047591478 0.08239114
000190 50 51 1f be fa d5 0c 3e 28 28 5c be e6 f6 b4 3d
       -0.15558362 0.137535 -0.21499693 0.08836155
0001a0 2e 1b 96 bc 55 56 82 be 9f 99 32 3d 14 91 c4 bb
       -0.018323507 -0.2545649 0.043603536 -0.00599874
0001b0 a3 4c 19 3e 56 e3 5f be dc d2 75 3d f2 40 ec bd
       0.14970641 -0.21864066 0.060015544 -0.11535825
0001c0 17 2c 62 be 32 f7 e5 bd cf 3a 7b 3e b6 a9 8b be
       -0.22087131 -0.112287894 0.24534152 -0.27277917
0001d0 e4 92 b8 bd 6c aa 11 3e 92 cd 48 3e 5e 2e 39 be
       -0.09012392 0.14225167 0.19609669 -0.18084094
0001e0 96 6e 68 be 50 78 e6 3d 5a d0 81 bd 9a 8c a4 be
       -0.22698435 0.112534165 -0.06338568 -0.3213852
0001f0 74 b7 25 3e 70 8e 94 be e2 82 52 be e5 57 5b 3e
       0.16183263 -0.2901492 -0.2055774 0.21420248
000200 7f 71 0c be b9 ff a7 3e b8 27 9f bc da c7 7e be
       -0.1371517 0.32812288 -0.019428119 -0.24880925
000210 31 cb 26 be 9f a1 df 3d ec ab a6 3e 74 fc 68 3d
       -0.16288449 0.10919499 0.3255304 0.056881383
000220 21 13 0a 3c ca d3 61 be d1 c8 a4 3e 0b 65 41 bd
       0.008427412 -0.22053447 0.3218446 -0.047215503
000230 10 04 15 be 38 3e d5 3b 65 93 69 3e 3d e9 01 be
       -0.14552331 0.006507661 0.22810133 -0.1268663
000240 ad 86 36 be f0 47 0e be b1 ec ab 3d d4 1b b1 be
       -0.17824812 -0.1389463 0.08394755 -0.34591544
000250 c7 3e 1b be 22 6e 5a 3e 72 54 88 3e af 57 5b be
       -0.15160666 0.21331075 0.26626927 -0.21420167
000260 c0 e5 8d 3e b7 8f 87 be 9d a0 9b be 8c e7 95 be
       0.27714348 -0.26476833 -0.30395976 -0.2927822
000270 92 0d 12 3e b2 14 53 3d 51 76 31 be 8d 59 a0 be
       0.14262989 0.05153341 -0.1733029 -0.31318322
000280 2c 35 92 be e4 4c 8d 3e 80 79 90 be 08 64 5a be
       -0.28556192 0.27597725 -0.28217697 -0.21327221
000290 cb 1c 91 3d 48 e6 99 be ba bd 5c 3e e8 ce 75 be
       0.0708557 -0.30058503 0.2155675 -0.2400471
0002a0 16 e8 d4 bd 13 3a 80 be 74 77 f4 3d 1a 76 5c be
       -0.103958294 -0.25044307 0.119368464 -0.21529427
0002b0 6f f0 c6 bd ca 16 49 3e 25 70 aa 3e 97 9e 09 bd
       -0.09713828 0.196376 0.33288684 -0.03359851
0002c0 71 0c 97 3e 73 fe 4a be e3 f4 89 be 25 58 3b 3e
       0.2950168 -0.19823627 -0.26944646 0.18295343
0002d0 91 ff 1a 3c 31 06 90 3e 05 e0 09 be fe 6b b7 3c
       0.009460346 0.28129724 -0.13464363 0.022390362
0002e0 9e 18 8e be c3 16 4f 3e 5e 0e 8a be 5f 6f b9 bc
       -0.27753156 0.20223527 -0.26964086 -0.022636114
0002f0 5b 4f f7 bd 75 8f a6 be 66 ae 90 bd 92 3a d2 bd
       -0.12075683 -0.32531324 -0.07064514 -0.10265078
000300 f8 fa 93 3e 04 d0 77 3d 80 c4 ab be 4e bb 4b bd
       0.2890241 0.060501114 -0.33548355 -0.049739175
000310 55 c7 5d be 42 c6 ef bd 24 9d 73 3e ed cc 83 be
       -0.2165807 -0.117077366 0.23790413 -0.25742283
000320 ac 35 08 be 4e 1a 60 3e 40 7f ca bd 51 57 30 be
       -0.13301724 0.21885034 -0.09887552 -0.17220809
000330 70 fd 0a 3e 61 6e 98 be 9a ba 1b bd 66 46 25 bd
       0.13573241 -0.29771712 -0.038019754 -0.04035034
000340 1c 06 bf bd 3f a3 77 3e f6 3a 72 be ee 12 5f bd
       -0.09327337 0.24183367 -0.23655304 -0.054461412
000350 84 82 65 3e 37 58 8d be 32 02 8d be 18 5f c5 bd
       0.22413069 -0.27606365 -0.27540737 -0.09637278
000360 37 24 9e 3d 29 c8 ab bd b2 6a aa be 68 1b 6c be
       0.07721751 -0.08387787 -0.33284527 -0.2305733
000370 42 ef 57 3e 10 ad cc 3c 02 6c d1 bd c2 ec 05 3e
       0.21087363 0.024984866 -0.10225679 0.13078597
000380 9a b8 89 3e 60 09 48 3d 3f 85 f9 3d b8 1a b5 bd
       0.26898652 0.048837066 0.12183618 -0.08842987
000390 0c 56 a1 3d 9b 29 8a 3e 9c 61 a6 3c c8 f5 b4 ba
       0.0787774 0.26984867 0.020310216 -0.0013806159
0003a0 ef 28 6b 3e ce 7f ae 3d be 23 ce bb 44 a4 dc 3b
       0.22964834 0.085204706 -0.006290882 0.006733449
0003b0 85 a4 66 be f6 ce 5b bd 39 69 b6 bd 7c 48 13 3e
       -0.22523697 -0.05366417 -0.089067884 0.1438312
0003c0 1d 3f 91 be 50 d9 3d 3e 54 fd 3b 3d a0 fd 09 3e
       -0.28368464 0.1853993 0.04589589 0.13475657
0003d0 ea 85 a2 3d 27 1f a8 3e 8a ee 06 bd 6a 5d 3a 3e
       0.07935698 0.32836267 -0.032942332 0.18199697
0003e0 ba 2f 66 bd ce 58 6d be 6f 96 ab be 09 68 15 be
       -0.05619786 -0.23178408 -0.3351321 -0.14590468
0003f0 e1 81 f7 bd 4d ca 75 3e 71 eb 75 3e 8c b6 57 be
       -0.12085319 0.24002953 0.24015595 -0.2106573

lstm.bias_ih_l0 f4 [40]
000000 a9 cf 98 be 7e 68 81 3d 84 ba 57 3e 04 e5 6e be
       -0.29845932 0.063187584 0.21067244 -0.2332955
000010 f2 a1 a4 3e 23 06 10 3e dc a3 82 3e 88 73 4a 3e
       0.32154804 0.14064841 0.2551564 0.19770634
000020 70 5e 53 3e 07 62 9f 3e f9 d0 51 3e a0 85 4f be
       0.20641494 0.31129476 0.20489873 -0.20265818
000030 92 db 24 3e 1c 38 f7 bd 1a 47 bd bc 15 e9 d3 3d
       0.16099384 -0.12071249 -0.023105193 0.10347191
000040 78 60 2c bd 08 95 95 be e5 86 65 be 90 c4 a2 bd
       -0.042084187 -0.29215264 -0.2241474 -0.079476476
000050 ee 05 91 bc 8e 64 6f 3e 9f 87 28 3e 9f 33 f8 bd
       -0.017703023 0.23378202 0.16457985 -0.12119221
000060 a4 fc 03 be f3 6d a4 be 2d 57 9d be 46 1c 0a bd
       -0.12889344 -0.32115135 -0.30730572 -0.03371837
000070 98 34 90 be ac 27 64 be 07 d3 90 be 57 01 9e 3e
       -0.28165126 -0.22280759 -0.28286 0.30860397
000080 5b e8 13 be 54 0d a7 bb c9 00 53 be b6 95 35 3e
       -0.14444105 -0.0050980244 -0.20605768 0.17732891
000090 6c 4d 2d bd 80 3e fc 3d 68 03 a9 3e 5d a8 89 3e
       -0.042310163 0.123166084 0.3301041 0.26886263

lstm.bias_hh_l0 f4 [40]
000000 f1 e2 34 3e 5f 3b 16 3e 64 ac 58 be 41 13 24 be
       0.17664696 0.14671086 -0.21159512 -0.1602297
000010 90 26 86 3e 15 bb 99 3d 2d fe 90 bd e5 41 07 3e
       0.26201296 0.07506386 -0.0707973 0.1320873
000020 20 2b 56 3e 6b 62 75 3e e8 3f cb 3d 23 95 8c 3d
       0.20914888 0.23963325 0.099242985 0.06864383
000030 d4 97 d7 3d 03 d2 19 3e d1 e3 84 3e cb f7 af 3e
       0.10527006 0.1502152 0.2595506 0.3436874
000040 20 70 49 bd a5 87 7a 3e 52 dd db bd b6 cf b6 bd
       -0.049179196 0.24465807 -0.10735573 -0.089263365
000050 20 ab 27 3e 50 f2 dc 3c b5 fe 1c bd 52 d7 27 3e
       0.16373873 0.026971012 -0.038328845 0.16390732
000060 10 50 72 3d a5 74 67 be 4c 7b 81 bc 2c 05 91 bd
       0.059158385 -0.2260309 -0.015805863 -0.070810646
000070 8c 3b 62 bd e2 b8 14 3e 6c 41 9a bd f9 52 55 bc
       -0.05523257 0.14523652 -0.075320095 -0.0130202705
000080 74 de a8 be 72 f9 4b 3e 99 9d 28 3d e3 3a 8b bd
       -0.32982218 0.19919375 0.04116592 -0.06798341
000090 82 21 16 3e 3c f7 85 3e ea 85 41 be 53 88 91 3e
       0.1466122 0.26165187 -0.1889874 0.2842432

lstm.weight_ih_l1 f4 [40, 10]
000000 40 4a a1 bd 76 4e 21 be cc 11 87 3e 28 01 b9 bd
       -0.0787549 -0.15752587 0.26380765 -0.09033424
000010 91 bb 93 3e 68 65 0d 3e 7a bf d7 bd 8e 66 a5 3e
       0.2885404 0.13808215 -0.10534568 0.32304806
000020 5e 10 73 3e f5 83 23 bd 73 09 a2 3e 18 41 77 3e
       0.23736712 -0.039920766 0.31647834 0.24145925
000030 ea 98 4a be b6 f8 79 be 95 ab 06 be 30 3f 6d bc
       -0.19784895 -0.24411282 -0.13151391 -0.014480397
000040 ee 2d e3 3d 71 8f b3 bd 5e 72 ec bb 08 91 1d 3e
       0.11092745 -0.08767594 -0.007215782 0.15387356
000050 ec 51 5e 3d 90 9a 84 be 83 43 11 be 1c e4 9e bd
       0.054277346 -0.25899172 -0.1418591 -0.07758352
000060 88 2a 87 3e c2 75 0a 3c 53 9b 8e be 01 f4 01 be
       0.26399636 0.008450927 -0.27852878 -0.12690736
000070 90 60 87 be 38 51 7c bd a8 41 a0 3e da 5b 54 3e
       -0.2644086 -0.061600894 0.31300092 0.20738164
000080 72 ef 91 3e 8e 6e f7 3d 6a f6 0f bd 1d 13 7b 3d
       0.28502995 0.120816335 -0.03514711 0.061297525
000090 21 f7 55 be 1c f4 9c 3d 94 93 4c 3c c8 1f 8b 3e
       -0.20895053 0.07663748 0.012486357 0.27172685
0000a0 fb 19 8d 3e dc a7 af 3e 42 28 e7 3d 60 72 0c be
       0.27558884 0.34307754 0.112869754 -0.13715506
0000b0 3a 33 a2 be ff 2e 62 be 12 1b f1 3c 52 10 61 be
       -0.31679708 -0.2208824 0.029431853 -0.21978882
0000c0 97 74 b0 be c2 b4 5b 3e 1a 4e 1c 3e 8b f8 2f be
       -0.3446395 0.21455672 0.15264168 -0.17184655
0000d0 d0 53 54 3d 7d c4 06 bd b9 2b 85 be d9 78 75 be
       0.051837742 -0.03290223 -0.2600992 -0.23971881
0000e0 01 f8 08 be f8 83 08 3e aa 56 44 3e cf 0b 32 3e
       -0.13375856 0.13331592 0.19173685 0.17387317
0000f0 04 17 07 3e 5e c6 c2 3d fe b6 d9 bd 3d 3c 61 be
       0.13192374 0.09510492 -0.10630606 -0.21995635
000100 e4 45 16 be 68 a9 8f be 0d 17 07 3e 1e d1 01 3e
       -0.14675099 -0.28058934 0.13192387 0.12677428
000110 96 a6 92 3e ad ad 0b 3e 08 86 25 bd fa 89 60 be
       0.2864272 0.13640471 -0.040411025 -0.21927634
000120 3e 36 59 3e d0 55 81 be fa 93 64 3e c6 09 3d 3e
       0.21212098 -0.25260782 0.22322074 0.1846076
000130 9c 0d a0 bd 53 ba 74 be 9b 16 1b be eb a6 1f be
       -0.07815096 -0.23899202 -0.15145342 -0.15591018
000140 7e e3 18 3e 6d 5f a1 bd 5f 86 fb 3d 68 ca 2e be
       0.14930531 -0.07879529 0.122814886 -0.170694
000150 f2 e6 0d 3d 4d f2 8f 3d 26 a6 5d be 68 43 98 be
       0.034644075 0.07028637 -0.21645412 -0.29738927
000160 7a fa 80 be 05 6e 9e be 6d cf 06 3e dc 6a 27 be
       -0.25191098 -0.30943313 0.13165064 -0.16349357
000170 1f a3 4d be a7 01 89 3e 73 f8 32 be 88 70 f2 bd
       -0.20081757 0.26759073 -0.17477588 -0.1183787
000180 10 dd 32 3c 65 ba d5 3d 53 d9 ab be 46 82 91 3e
       0.010916963 0.104359426 -0.33564243 0.28419703
000190 0a 45 54 3e d5 5e 92 3e c5 85 a5 bc 3e 74 00 be
       0.20729461 0.28587976 -0.020205388 -0.12544343
0001a0 ef 13 a9 3e 91 2d b9 bd dd e6 a3 3e 09 2f b6 bd
       0.3302302 -0.09041894 0.32012072 -0.0889569
0001b0 b4 03 14 be 95 e8 70 be f7 ca 69 be bc d6 56 3e
       -0.14454538 -0.23526223 -0.22831331 0.20980352
0001c0 73 07 aa 3e 93 63 2a be e4 a5 1f 3d 12 f3 ae bd
       0.33208808 -0.16639547 0.038976565 -0.08542456
0001d0 2b ca 8e 3e b1 15 ca 3d da 07 7a be e4 a4 c0 bc
       0.27888617 0.098674186 -0.24417058 -0.023516126
0001e0 f4 cc db 3d a4 d7 82 3d 95 d0 68 3e bf d9 6a 3e
       0.10732451 0.063887864 0.22735818 0.22934626
0001f0 7e 89 23 3e 26 8b 77 be e9 3d 2a 3e b7 40 f8 bc
       0.15970418 -0.24174175 0.1662518 -0.030304296
000200 ae 82 54 3e fd b2 89 bd 0f ac 62 3e a1 58 54 be
       0.20752975 -0.067235924 0.22135948 -0.20736934
000210 ee 66 1e be 09 70 20 be 06 fd f4 3d e4 ea 06 bd
       -0.15468952 -0.15667738 0.11962323 -0.032938853
000220 dc 97 82 be f0 80 03 3e f2 de 7b 3e 0c e4 44 bd
       -0.25506485 0.12842155 0.24596766 -0.048069045
000230 97 77 46 be f4 78 30 3e a8 9e 31 be 97 be 06 be
       -0.19381557 0.1723364 -0.17345679 -0.13158642
000240 22 03 79 be cc 04 74 3e 40 d1 ea bc 42 eb 19 be
       -0.24317601 0.23829955 -0.028664231 -0.1503115
000250 55 03 39 bc 52 41 81 be ca b9 30 3c c0 13 5e be
       -0.011292298 -0.25245148 0.010786483 -0.21687222
000260 ef 3a 2c be 4c bf 95 be e3 f8 f7 bd 05 b5 79 3d
       -0.16819356 -0.2924751 -0.12108018 0.06096365
000270 5f 1f 8a bd b6 86 72 be 7e 3f 21 be db dd 90 3e
       -0.06744265 -0.236842 -0.15746877 0.28294262
000280 6b 0f 6b 3e 52 c8 c5 3c 78 86 7c bb e2 02 b2 bd
       0.229551 0.024143372 -0.0038532298 -0.08691956
000290 74 24 95 be 7a 9e 90 be 81 07 6c be 8e bb ab be
       -0.29129374 -0.28245908 -0.23049738 -0.3354153
0002a0 b3 53 2e 3e 36 80 2a be cb 10 2d bc 7a 78 ca bd
       0.17024116 -0.16650471 -0.010563086 -0.0988626
0002b0 62 45 43 be 98 bb 55 bb 03 c5 70 3e a5 1d 57 bc
       -0.19069436 -0.0032613035 0.23512654 -0.013129626
0002c0 07 03 94 be b6 3b 68 be 20 fa 60 3e 6c c4 f6 3d
       -0.2890856 -0.22679028 0.21970415 0.12049183
0002d0 bf 9e 02 be 58 0a 85 bd 3b 6a 99 3e 2e e5 ae bd
       -0.1275587 -0.064961135 0.2996386 -0.08539806
0002e0 11 41 e4 3d 26 4d d5 bd 5c 76 85 3d 81 4e c3 bd
       0.11145223 -0.104151055 0.06516716 -0.09536458
0002f0 53 14 c2 bd a9 0b 20 3e 5c f0 8c 3e 84 a4 94 3e
       -0.09476533 0.15629448 0.2752713 0.29031765
000300 cc c0 7b 3e 50 87 76 be d8 b4 db 3d c5 fe 10 3e
       0.24585265 -0.24075055 0.107278526 0.14159687
000310 f1 66 89 be c4 6a 23 be 21 8c 4b 3e a6 3a 92 bc
       -0.2683635 -0.15958697 0.19877674 -0.017850231
000320 5a ac 3f 3d 19 a2 b9 3c b6 59 79 be c1 0d 5a 3d
       0.046795227 0.022660302 -0.24350628 0.053235773
000330 9a 06 8b 3e 8b 18 56 3e 72 d4 bb 3d c9 80 29 3e
       0.27153474 0.209078 0.0917138 0.16553034
000340 ce 35 24 3e b3 d2 39 bd 88 27 34 be de c2 a2 be
       0.1603615 -0.045366954 -0.17593205 -0.31789297
000350 60 1e 87 be 91 c9 97 be 57 e4 79 3e 15 f6 75 3e
       -0.26390362 -0.2964597 0.24403511 0.24019654
000360 02 84 30 be ba 3d 02 be de 0e 80 3e 99 b3 80 3e
       -0.17237857 -0.1271886 0.25011343 0.25137022
000370 e7 13 19 bd a6 cb 99 be e2 f3 aa 3c 56 51 6b 3d
       -0.037372496 -0.30038184 0.020868246 0.057450615
000380 00 44 a7 3e 86 33 c7 3d dc 76 0a 3e 60 cb f7 bd
       0.32669067 0.09726624 0.13521904 -0.120993376
000390 60 72 34 3d bf c1 4e 3e 97 5b 97 be 7d 02 54 be
       0.04405439 0.20191096 -0.29562065 -0.20704074
0003a0 d1 ba 87 3e 08 e1 03 3d 67 52 81 3e 52 b8 a8 bd
       0.26509717 0.03219703 0.2525818 -0.08238281
0003b0 be e6 3c 3c 33 0f 4c 3e 4e fe b8 bd 2c 94 8c be
       0.011529623 0.19927673 -0.0903288 -0.27456796
0003c0 7f e2 0d be 56 2e 70 be d6 e8 94 bd 91 d2 1a be
       -0.13855933 -0.23455176 -0.072709724 -0.15119387
0003d0 0e b2 61 be 95 75 53 3e 70 de 06 be 5d 69 d7 3d
       -0.22040579 0.20650323 -0.1317079 0.10518143
0003e0 1a 35 05 be d1 b9 50 be 19 18 44 be e8 29 8d 3d
       -0.13008538 -0.20383383 -0.19149818 0.068927586
0003f0 bb 80 0c be 2a c4 ca 3d 42 69 b9 bd ed 49 72 be
       -0.13720982 0.099006966 -0.090532795 -0.23661013

lstm.weight_hh_l1 f4 [40, 10]
000000 b8 87 92 bd f1 6f 85 3d cc 3e d2 bd 0e e2 3f 3e
       -0.071547925 0.06515492 -0.10265884 0.18738577
000010 f7 72 82 3e 07 53 80 be d6 ab 58 be e7 4c 89 be
       0.25478336 -0.25063345 -0.211593 -0.26816484
000020 f7 aa 08 be ef a0 8e 3c 8e b8 29 3e 14 92 56 be
       -0.13346468 0.017410723 0.16574308 -0.20954162
000030 f7 9c 24 3e a8 f2 e9 3c 9f 8e e5 3d 8a c1 b9 3c
       0.16075502 0.02855809 0.112088434 0.022675294
000040 98 4f 4a 3e 0e 03 87 be fe 3b 7b 3e cf 50 54 3e
       0.19756925 -0.26369518 0.24534604 0.20733951
000050 3d b6 73 be 5a f7 1d 3e f2 a8 e5 3c b0 c2 8e 3e
       -0.23799987 0.15426388 0.028034661 0.2788291
000060 e3 3d ba bd 85 58 a1 3e a4 13 53 be be fb 18 be
       -0.09093835 0.31512848 -0.20612961 -0.14939782
000070 31 1c 5c be 47 72 ce bd 31 48 72 3e 86 a5 0b 3e
       -0.21495129 -0.100803904 0.23660351 0.13637361
000080 f0 1a 09 3e a6 14 6d 3e a1 23 83 3e fe 07 52 bd
       0.13389182 0.23152408 0.2561312 -0.051277153
000090 d7 d8 25 be 80 fd 99 bc 58 0c d0 bd 8e 6d a9 3e
       -0.16195999 -0.018797636 -0.101586044 0.33091396
0000a0 ea b5 18 3e 79 e5 2b 3e 8f 2b 88 be 79 3d 48 be
       0.14913145 0.16786756 -0.26595733 -0.195547
0000b0 b5 87 90 be 65 96 83 3e a0 7b 71 be 62 5e 6c be
       -0.28228536 0.2570068 -0.23582315 -0.23082879
0000c0 c1 7d 9e bd 0b 99 00 3e 8d d9 0a 3e e8 ea cc bd
       -0.077388294 0.12558381 0.13559552 -0.10005742
0000d0 49 ef 50 3e f4 7a 54 3e d5 09 26 3e a9 2e 1a 3e
       0.2040378 0.20750028 0.16214688 0.15056862
0000e0 32 2e 82 3e 84 9b 87 3d 10 f2 a1 3a d4 91 8f 3e
       0.2542587 0.06621459 0.0012355465 0.28040946
0000f0 33 60 8b 3e 60 b9 10 be fd b6 aa bd 44 f8 1c 3d
       0.27221832 -0.14133215 -0.083356835 0.038322702
000100 6c d1 90 3e f9 5f 33 bd 97 23 40 3e be 92 a2 3d
       0.28284776 -0.0437927 0.18763576 0.07938145
000110 7b d9 8b be 44 35 05 3e 1c 20 41 3e d7 42 c4 3d
       -0.27314362 0.130086 0.18859905 0.09583061
000120 95 c5 92 be 62 36 5d 3e 9a 2c 30 be 34 9f f5 bd
       -0.28666368 0.21602777 -0.17204514 -0.11993256
000130 03 0a 1d be ac 34 15 3e 09 5c b9 bd 17 09 6f 3e
       -0.1533585 0.14570874 -0.090507574 0.23343311
000140 67 46 70 be a5 69 49 be ee 53 07 3d 9a fa 61 3e
       -0.23464356 -0.19669206 0.033039026 0.22068253
000150 a4 88 aa 3e a0 34 b4 3c 73 d4 e6 bd c5 2f 78 be
       0.33307374 0.02199775 -0.1127099 -0.24236973
000160 0d 28 4d 3e ca 12 b9 bd 96 5f b3 bd 88 f5 70 3c
       0.2003481 -0.09036787 -0.08758466 0.014706977
000170 2a 72 3e bd 9b a2 34 be b7 f0 99 3e b3 59 64 3e
       -0.046495594 -0.17640154 0.30066463 0.22299843
000180 67 7f 26 3e e6 75 40 3e e2 92 ae be ba 51 d6 bb
       0.16259538 0.18794975 -0.34096438 -0.0065405043
000190 71 77 81 bb 31 67 9c 3e 5e 31 90 be 5d 83 a1 bd
       -0.003951006 0.3054748 -0.28162664 -0.07886384
0001a0 54 ac 24 bd a6 81 57 3d af 09 52 3e 63 61 53 bd
       -0.040203407 0.052613877 0.20511506 -0.051606547
0001b0 05 98 72 3e c3 65 12 be 90 e7 26 bc c6 4a f8 bc
       0.23690803 -0.14296632 -0.010187045 -0.030309092
0001c0 b6 76 57 3e e1 81 21 bd 9a 71 d3 3c ce 17 12 be
       0.21041378 -0.039430503 0.025811005 -0.14266893
0001d0 c0 68 ec bd 38 ec d6 3d cf 42 af be 03 20 76 3e
       -0.11543417 0.10494274 -0.34230658 0.24035649
0001e0 ad dc ac 3e 87 b1 85 3c 16 92 52 3e bf 12 1c be
       0.33762112 0.016320003 0.2056354 -0.15241526
0001f0 8f 7a 76 3e 66 ca 69 be 24 5a fd 3d 7b 6b d3 3c
       0.2407019 -0.22831115 0.123707086 0.025808087
000200 64 68 8c 3b f2 5e 6e be 19 61 15 3e c2 73 29 3e
       0.0042849053 -0.23278406 0.14587821 0.16548064
000210 5a 9c 01 bd 8a 81 50 bd 9d bb 21 3c 69 5a 9e 3d
       -0.03164325 -0.050904788 0.009871391 0.07732088
000220 4c ad 65 3e 42 5a 79 3e c1 e7 8c be eb 73 1a 3e
       0.22429389 0.24350837 -0.27520564 0.15083282
000230 c1 ef 65 be 88 1e 87 3e 46 2c 91 3e 54 bd 8c 3e
       -0.2245474 0.2639048 0.2835409 0.27488196
000240 7d b3 25 3e 5c 3b 2a bd 20 76 15 be 11 41 dc 3d
       0.1618175 -0.041560516 -0.14595842 0.10754598
000250 cd e3 e2 bd 0c 94 9a 3e f8 1e 65 bd 0d 12 96 3e
       -0.11078606 0.30191076 -0.055937737 0.29310647
000260 a2 6d 92 be 00 05 7d 3c e7 4b 58 3e eb bb 84 bd
       -0.28599268 0.015443087 0.21122704 -0.06481155
000270 49 ca 55 be ff 99 2f bc 4f 56 d4 bd 8b 49 fc 3d
       -0.20877947 -0.010717868 -0.103680246 0.12318715
000280 4b 43 43 3d 99 ad 02 3e 10 84 58 bd e4 e6 40 3e
       0.047671597 0.12761535 -0.05286032 0.18838078
000290 2d 45 22 3e 60 95 16 3e aa 70 a9 bd 0c 4b c6 3c
       0.15846701 0.1470542 -0.08273442 0.024205707
0002a0 d4 5b d3 bd 4e 3a 2a 3e a2 bc 39 3e 88 da 58 be
       -0.10320249 0.16623804 0.18138364 -0.21177113
0002b0 51 89 80 be 76 5c 09 3e 3d 45 69 be ae 25 6c 3e
       -0.25104764 0.13414177 -0.22780319 0.23061249
0002c0 29 7b a5 bd e4 9b 35 3e cb 24 9a bd b9 e5 3d 3e
       -0.080801316 0.17735249 -0.07526549 0.18544663
0002d0 2d 32 99 3d 18 8e 73 3e 5e 47 73 be 96 88 9b bc
       0.074802734 0.23784673 -0.23757693 -0.018986028
0002e0 6c 30 69 be 05 6a 07 3e 98 c4 22 3e f8 59 39 3d
       -0.22772378 0.13224037 0.15895307 0.045251817
0002f0 aa 7a 42 bd c7 c7 51 be 98 9e 2d be f4 5c a4 bc
       -0.047480263 -0.20486365 -0.1695503 -0.020063855
000300 43 0f 32 3e 5c ae 8b 3e 52 7d 74 be 66 07 e8 3d
       0.17388634 0.27281463 -0.23875931 0.11329536
000310 a6 db 89 be e2 f9 90 be dd d0 7b be c2 98 55 3e
       -0.2692539 -0.28315645 -0.24591394 0.20859054
000320 1d 2d c0 bd f6 72 3b be dd ad 04 bd e2 0a a4 bd
       -0.09383605 -0.18305573 -0.03239237 -0.08009888
000330 97 5d 41 be 34 be 4f be c3 44 08 3e f1 7f 43 be
       -0.18883358 -0.202874 0.1330748 -0.19091775
000340 99 93 85 be 9d d2 26 3d 23 48 6a be 7b a9 a2 bd
       -0.2608917 0.0407282 -0.2287908 -0.07942482
000350 c8 ba 1c 3e 8a e9 94 3d 1c 14 27 3e c2 9f 0e 3e
       0.15305626 0.072711065 0.16316265 0.1392813
000360 ee 60 92 be 34 88 f3 bc 5e c5 60 3e 32 25 e4 3d
       -0.28589576 -0.029728033 0.2195029 0.11139907
000370 7f be 90 3e 97 dd 4f 3e a3 16 22 be 5f e3 51 3e
       0.28270337 0.20299374 -0.15828948 0.20496891
000380 41 aa 5c bd 91 32 8e be 13 14 aa be c8 c9 3e bd
       -0.053873304 -0.27772954 -0.3321844 -0.046579152
000390 59 b0 7f be 4f f7 a5 bc 2b 74 8e 3e 0a 86 4c 3d
       -0.24969615 -0.020259527 0.27823004 0.049932517
0003a0 d6 f3 86 3e 71 37 b6 3d 39 eb 5b 3e 9f 4f 71 3e
       0.26357907 0.08897293 0.21476449 0.2356553
0003b0 7a 2b 12 3d 3a 33 9b 3e e6 25 e9 3d aa cf ca bb
       0.035685994 0.3031252 0.11384182 -0.0061893063
0003c0 72 f6 13 bc d8 b1 7e be be f3 ff bc 18 3e 47 3e
       -0.009030925 -0.2487253 -0.031244155 0.1945728
0003d0 18 7b 8b 3e 8e e3 49 be 2f 48 69 be 6b d4 52 3e
       0.2724235 -0.19715711 -0.22781442 0.20588844
0003e0 38 af 80 be 50 46 c1 bc 41 eb 87 3d 34 e4 5e be
       -0.2513368 -0.023593098 0.06636668 -0.2176674
0003f0 4f 3a 8e be 21 61 d0 bd e2 08 45 be 2c 3d 93 be
       -0.2777886 -0.10174776 -0.1924167 -0.28757608

lstm.bias_ih_l1 f4 [40]
000000 8c d6 c9 bd be 4f 92 3e 73 f9 01 be ca 04 0e be
       -0.09855375 0.28576463 -0.12692814 -0.13869014
000010 3d 4a 02 3e 25 3f a3 be 11 07 56 bd 6c 3c 44 3e
       0.12723632 -0.31884113 -0.052252833 0.19163674
000020 d6 34 1c be a8 cd 0c 3e f7 1b 07 be f3 e9 1c bd
       -0.1525453 0.13750327 -0.13194261 -0.03830905
000030 76 ab 61 bd 73 f0 87 3c 18 56 1d 3d 80 d7 a6 be
       -0.05509516 0.016594147 0.038412184 -0.32586288
000040 6b 0d 88 bd 34 0d 0d 3e 75 89 35 be 3d 1e 79 3e
       -0.06643184 0.13774568 -0.17728217 0.24327941
000050 e2 aa 22 3e 64 d8 3a bd 6e 37 66 3e 41 b6 2e 3e
       0.15885499 -0.045616522 0.22482082 0.17061712
000060 df e8 46 3e 38 77 23 be 19 0b 28 3e e8 4e cd bd
       0.19424771 -0.15963447 0.16410483 -0.10024816
000070 36 07 6e be 21 51 51 3c a0 e7 ad bd 4c d6 ca 3d
       -0.23244938 0.01277569 -0.084914446 0.09904155
000080 df 6b a4 be 95 5a 30 be 0e 57 07 3d d5 19 89 3e
       -0.3211355 -0.17222054 0.033042006 0.2677752
000090 e5 04 ba 3d 9c 6a 4b be 9f 1b 4b be 5c bc a6 3d
       0.09082965 -0.19864887 -0.19834755 0.081413954

lstm.bias_hh_l1 f4 [40]
000000 8a 6c 3b 3e 6a 0c 1f be 00 51 c4 3d e5 bd 69 be
       0.18303123 -0.1553208 0.09585762 -0.22826345
000010 18 0e 16 bd 8e 8f 49 be f5 eb 2b be 21 b1 15 bd
       -0.036634535 -0.19683668 -0.16789229 -0.036545876
000020 8f 41 d2 3d f4 5c 52 3e 22 ec a9 be 1d ab 3c 3d
       0.102664106 0.20543271 -0.33187968 0.046061624
000030 46 74 6c 3d af 6e 86 3e 94 5c 80 be 47 7c af be
       0.057728074 0.2625632 -0.25070632 -0.34274504
000040 64 76 42 3e 7d be b2 bd f2 a6 ad 3e 82 f8 c2 bd
       0.18990475 -0.08727739 0.33916432 -0.09520055
000050 b8 2d 0f be 9c 21 6c be 7a bd 16 3c 7d 87 a4 be
       -0.13982284 -0.23059696 0.009200448 -0.3213462
000060 1c 00 96 3e ab 37 aa bd 2a 70 43 3d 04 1c 60 be
       0.29296958 -0.08311399 0.04771439 -0.21885687
000070 be 2f cb 3c 27 43 13 3e 87 fe f7 3c 28 21 cd bd
       0.024803039 0.14381085 0.030272735 -0.1001609
000080 15 26 93 bd a5 e6 94 3c 9e 49 25 be 2d d6 f9 bd
       -0.07184998 0.018176386 -0.16141364 -0.12199054
000090 73 21 d6 3d 32 2b 0e 3e b5 35 8e be 07 0a 0d be
       0.10455599 0.13883665 -0.2777535 -0.13773356

output_layer.weight f4 [6, 10]
000000 8a 7b e2 3d 7b 84 ee 3d 2e d6 54 3e 13 bb 12 be
       0.110587195 0.116463624 0.20784828 -0.14329176
000010 38 54 7d 3e 28 a3 eb 3d eb 0a 55 be b3 1c 51 be
       0.24739158 0.11505729 -0.20804946 -0.20421104
000020 f2 4a c7 bb 0a b9 33 bd ea f8 4c be 05 bb 97 3d
       -0.006081932 -0.04387764 -0.20016828 0.07408718
000030 53 2b 8e be 5a e8 8b be e0 ce a8 3e 08 df 15 3e
       -0.2776743 -0.27325708 0.32970333 0.14635861
000040 a0 30 a6 3e 89 71 f7 3d 56 3e 7f be 2a 72 ac 3e
       0.32458973 0.12082202 -0.24926123 0.3368085
000050 02 05 0c be bd 55 a1 bd 72 b5 1b be c5 3b 75 bd
       -0.13673785 -0.078776814 -0.15205935 -0.059871454
000060 58 6a 5d be 98 c4 3f be f8 28 a8 be 13 a5 b8 3d
       -0.21622598 -0.18727338 -0.32843757 0.090158604
000070 a6 c5 e1 bc 8b 88 ef 3d 25 4d 1c bd 29 a4 e6 bc
       -0.027560066 0.116959654 -0.03815951 -0.02815445
000080 48 1a 50 be 96 56 27 3e 5d c1 06 be 6a 5d 67 3e
       -0.20322526 0.16341624 -0.131597 0.22594228
000090 07 65 3f 3e 36 81 1b be df f1 94 3d e7 89 40 be
       0.18690883 -0.15186009 0.07272696 -0.18802606
0000a0 1f c1 45 be d9 29 3c be bd d4 61 be cb 03 5a be
       -0.19311951 -0.18375339 -0.2205381 -0.2129051
0000b0 5c ec 05 be d9 50 2b be 8e 72 5e be 6a 36 dd bd
       -0.13078445 -0.1673006 -0.21723387 -0.10801394
0000c0 f8 bf cd bb 6e 42 87 bd b0 b3 29 bd 42 6a a5 3e
       -0.006278988 -0.06604467 -0.04143113 0.3230763
0000d0 b2 41 8e 3e 84 d6 ed bd 4a bb 88 be 89 79 d8 bd
       0.27784497 -0.11613181 -0.2670539 -0.10570056
0000e0 b7 b8 24 3e 38 21 9e 3e 7c 8b 72 3e 45 6f 26 be
       0.16086088 0.3088472 0.23686022 -0.16253383

output_layer.bias f4 [6]
000000 45 6a a6 3e de 88 f5 bd 6b b1 79 3e ae 95 38 3c
       0.32502952 -0.11988996 0.24384086 0.011266155
000010 8d 37 a5 be 85 7b 76 3e
       -0.32268944 0.24070556
